results/MADDPG/model_1_bulldogs.npy (npy, 936 bytes, 1 tensors)

array f8 [101]
-68.02625034039374 -123.58246154640801 -132.9145187306858 -77.27693713697954 -179.62541783513734 -115.40857660647089 -180.81289036173985 -69.96388289672632
-93.49287308795829 -203.21919523917586 -93.66474513258436 -118.45020313566783 -31.381577731721336 30.830934655386955 -17.92464447382372 -32.37512666196562
-26.4808207526803 14.282498762360774 -14.493265261291526 20.39835828024661 11.463029426988214 -36.168162017827854 -53.87433363660239 -127.96519070005161
-27.619371430017054 -144.21670157602057 -68.19082040195053 -75.30326135061841 -64.93561153460178 -164.49961525504477 -70.27065087907249 -162.51675201230682
-164.95895606291015 -191.80848709866405 12.729575685923919 -93.1737515439745 -69.28333907236811 -78.76829471997917 14.45205537835136 12.207054909318686
-181.97837435174733 -84.08322670440975 -93.19012617925182 12.582014917396009 -175.5125732398592 -180.15763851464726 -65.34792331373319 -86.40591786779714
-74.873641298851 -81.96145011273074 -181.3278597786557 -80.12271222099662 -192.89854783227202 -199.04105434240773 -185.71326836245134 -196.0916957608424
-191.8480208920082 -63.065392282092944 33.43505684082629 -197.1177765004104 -69.00987932184944 53.1748025289271 -197.50511618051678 -201.54000087664463
36.32030606456101 38.305695277871564 -197.19306872505695 -210.7272510889452 -208.02015125448816 -203.61600687960163 -72.72958998091053 -207.9302157445345
-207.2051780289039 27.34287988417782 -209.2673928551376 -85.3201909220079 35.80243431893177 -219.64902445639018 -204.81255455699284 -213.92883966933005
-212.14316745684482 -219.2143159903353 -215.4751679871697 -196.71839038981125 -202.29600176448002 -203.17399511206895 -199.30443775001913 -208.78514683735557
-199.21584009489743 -210.39908762439154 43.48150423751213 -210.35076406708686 29.168993564730044 -208.35618568072096 -213.77086266723927 -211.10898208385333
-199.05264987354167 -213.75304878642783 -209.4237884657923 -207.36612423253246 -214.18002729094587
00000000: 0060 e815 ae01 51c0 0040 cb0c 47e5 5ec0
00000010: 00fc c8bc 439d 60c0 0098 8a56 b951 53c0
00000020: 0088 436c 0374 66c0 00ad 7e1e 26da 5cc0
00000030: 00dd a532 039a 66c0 40a7 e341 b07d 51c0
00000040: 0077 903b 8b5f 57c0 60f6 bba5 0367 69c0
00000050: 0028 2b2f 8b6a 57c0 0010 d020 d09c 5dc0
00000060: 00a0 0614 af61 3fc0 0000 3222 b8d4 3e40
00000070: 0080 0f80 b5ec 31c0 0080 8426 0430 40c0
00000080: 0000 a011 177b 3ac0 0000 83ad a390 2c40
00000090: 0000 ab43 8dfc 2cc0 00c0 e9ce fa65 3440
000000a0: 0000 6c31 12ed 2640 0080 3f55 8615 42c0
000000b0: 0080 232a eaef 4ac0 00c8 36af c5fd 5fc0
000000c0: 0000 4420 8f9e 3bc0 00c0 2438 ef06 62c0
000000d0: 6072 c666 360c 51c0 00c3 4ba2 68d3 52c0
000000e0: 00b8 330f e13b 50c0 00a0 21d9 fc8f 64c0
000000f0: 0090 1058 5291 51c0 0020 843b 8950 64c0
00000100: 0010 a0c4 af9e 64c0 0000 5620 dff9 67c0
00000110: 0000 bef1 8a75 2940 00c0 cbbe 1e4b 57c0
00000120: 0060 343a 2252 51c0 0000 9ebd 2bb1 53c0
00000130: 0000 74cd 73e7 2c40 0000 e019 036a 2840
00000140: 0080 bad7 4ebf 66c0 0066 1996 5305 55c0
00000150: 0080 fe06 2b4c 57c0 0000 f8db fd29 2940
00000160: 00c0 feff 66f0 65c0 0020 ed5f 0b85 66c0
00000170: 0080 2560 4456 50c0 40c3 ef8e fa99 55c0
00000180: 00c0 31bd e9b7 52c0 80ba 0d66 887d 54c0
00000190: 0060 cad3 7daa 66c0 0000 5c84 da07 54c0
000001a0: 0030 62e7 c01c 68c0 0040 3251 50e1 68c0
000001b0: 0040 2c18 d336 67c0 00c0 f22b ef82 68c0
000001c0: 00b0 b5fc 22fb 67c0 0080 38c6 5e88 4fc0
000001d0: 00a0 4bf1 afb7 4040 0030 39d3 c4a3 68c0
000001e0: 0010 e1dc a140 51c0 0080 e4ed 5f96 4a40
000001f0: 0080 68e9 29b0 68c0 0020 ebaf 4731 69c0
00000200: 0000 04ca ff28 4240 0080 da05 2127 4340
00000210: 0080 769e 2da6 68c0 0060 13a4 4557 6ac0
00000220: 0060 3e14 a500 6ac0 0040 0f54 b673 69c0
00000230: 00e0 2c9a b12e 52c0 0020 cf53 c4fd 69c0
00000240: 0080 83d1 90e6 69c0 0000 e1f9 c657 3b40
00000250: 0000 767b 8e28 6ac0 00a0 1002 7e54 55c0
00000260: 0080 f22a b6e6 4140 00d0 efce c474 6bc0
00000270: 0010 6a72 009a 69c0 0060 f80d b9bd 6ac0
00000280: 0020 ebd3 9484 6ac0 0030 35ad db66 6bc0
00000290: 00a0 7e93 34ef 6ac0 00c0 d70d fd96 68c0
000002a0: 0040 b1d8 7849 69c0 0080 325e 9165 69c0
000002b0: 0080 3cf4 bde9 68c0 00a0 42ec 1f19 6ac0
000002c0: 0098 7c29 e8e6 68c0 00e0 6853 c54c 6ac0
000002d0: 0080 4cee a1bd 4540 0098 9075 394b 6ac0
000002e0: 00c0 8929 432b 3d40 0040 83df 650b 6ac0
000002f0: 0030 2fe8 aab8 6ac0 00c0 fec7 7c63 6ac0
00000300: 00a0 c94e afe1 68c0 00c0 c4f9 18b8 6ac0
00000310: 0020 d4ac 8f2d 6ac0 00a0 2a4a b7eb 69c0
00000320: 00e0 97c8 c2c5 6ac0
