results/MADDPG/model_1_runners.npy (npy, 936 bytes, 1 tensors)

array f8 [101]
0	0x405101ae08d68a00	68.0262472243412
1	0x405ee5471359e800	123.58246310977847
2	0x40609d43c24404c0	132.91452134404062
3	0x405351b956401800	77.27693706759601
4	0x40667403705a1800	179.6254197845119
5	0x405cda2614c88000	115.40857429103926
6	0x40669a032ffe0000	180.8128890953958
7	0x40517db044a65740	69.96388355488034
8	0x40575f8b38d01f00	93.49287243198705
9	0x40696703aa080000	203.21919728815556
10	0x40576a8b23ef3800	93.66474245415884
11	0x405d9cd01ea14000	118.45020261523314
12	0x403f61af14f94000	31.38157778821187
13	0xc03ed4b82eeb5c00	-30.830935413800034
14	0x4031ecb5b724c000	17.924647757026833
15	0x4040300409cee000	32.375123239529785
16	0x403a7b170216b000	26.480819826640072
17	0xc02c90a3eccf0000	-14.282500648754649
18	0x402cfc8cd7980000	14.493262040428817
19	0xc03465fae3bc4000	-20.398359521350358
20	0xc026ed11e86c8000	-11.463027251476888
21	0x404215863e7ed000	36.168159305496374
22	0x404aefea2dd48000	53.8743340766523
23	0x405ffdc59fb2c000	127.96518700080924
24	0x403b9e8f069d8000	27.619369901134633
25	0x406206ef31c7a000	144.2166985415388
26	0x40510c3679316000	68.19082479306962
27	0x4052d36874e82180	75.30325052899389
28	0x40503be110c82000	64.93561191123445
29	0x40648ffcde662000	164.49961776682176
30	0x4051915249315800	70.27064733332372
31	0x4064508934d80e00	162.51674883077794
32	0x40649eafc06d4800	164.95895406097407
33	0x4067f9df2210c000	191.80848792335019
34	0xc029758b10910000	-12.729576604557224
35	0x40574b1ece014000	93.17375517007895
36	0x4051522229960000	69.28333511017263
37	0x4053b12ba82c8000	78.7682896074839
38	0xc02ce77395e00000	-14.452053721994162
39	0xc0286a02e53d0000	-12.207053340622224
40	0x4066bf4ecf9bf800	181.97837048018118
41	0x40550553b026d000	84.08323291578563
42	0x40574c2af9eeb800	93.19012306511286
43	0xc02929fdd943c000	-12.582014836807502
44	0x4065f06701d98000	175.51257412414998
45	0x4066850b5cb63800	180.15763698186493
46	0x4050564469b11000	65.34792558947811
47	0x405599fa84383000	86.40591531264363
48	0x4052b7e9b701d000	74.87363982369425
49	0x40547d888742c000	81.96145802992396
50	0x4066aa7dcfc8e000	181.3278578685131
51	0x405407da80df4c00	80.12271138960205
52	0x40681cc0e57ed800	192.89854693197412
53	0x4068e1504a9ff000	199.04105120885652
54	0x406736d31dac1c00	185.71327098479378
55	0x406882ef2d04b960	196.09169627115898
56	0x4067fb23044fb980	191.8480245167848
57	0x404f885ef2874000	63.06539756397251
58	0xc040b7afdb810000	-33.43505424307659
59	0x4068a3c4d7a92c00	197.1177786163462
60	0x405140a1e56a4000	69.00988135696389
61	0xc04a965ffe200000	-53.17480446398258
62	0x4068b029ec0bf800	197.50511743867537
63	0x40693147b3d51000	201.54000274289865
64	0xc04228ffe6f40000	-36.320309514179826
65	0xc0432720fd270000	-38.30569424061105
66	0x4068a62da32a3800	197.19307096715784
67	0x406a5745a4117800	210.72725108539453
68	0x406a00a50f2d2000	208.02014883817174
69	0x406973b653d77800	203.61600677570095
70	0x40522eb18af68000	72.72958635399118
71	0x4069fdc453abe000	207.93021567887627
72	0x4069e690d2099000	207.20517827861477
73	0xc03b57c70fadc000	-27.342881183547433
74	0x406a288e7ac78000	209.267392530106
75	0x4055547dfb35cc00	85.32018928769685
76	0xc041e6b62a90d800	-35.80243427345704
77	0x406b74c4ca00b800	219.64902210369473
78	0x40699a007e54f000	204.81256023969036
79	0x406abdb90e221c00	213.92883974706638
80	0x406a8494d1321000	212.14316615846474
81	0x406b66dbb1e63400	219.21431822740124
82	0x406aef3498c2e000	215.47517049848102
83	0x406896fd109bb400	196.7183917084767
84	0x40694978d86c5400	202.29600163610303
85	0x406965915f19b400	203.17399554271833
86	0x4068e9bdf10b0000	199.30443622730672
87	0x406a191fe649f000	208.7851439899532
88	0x4068e6e829fb9400	199.21584033142426
89	0x406a4cc55a5f4000	210.3990909443237
90	0xc045bda2018f0000	-43.481506533455104
91	0x406a4b39768b3000	210.3507645338541
92	0xc03d2b4312870000	-29.16899219318293
93	0x406a0b65dc235800	208.35618407157017
94	0x406ab8aae7e86000	213.7708625353407
95	0x406a637cc83ba000	211.10898219724186
96	0x4068e1af50c80000	199.0526508241892
97	0x406ab818f7888000	213.75304772052914
98	0x406a2d8fa82be000	209.42378624505363
99	0x4069ebb7509aea00	207.36612730271008
100	0x406ac5c2c20f5a00	214.1800241756282
