results/DDPG/model_1_bulldogs.npy (npy, 80128 bytes, 1 tensors)

array f8 [10000]
000000 00 60 9e 75 1a ba 42 c0 00 1a ca ff 72 46 6d c0
       -37.453932478267234 -234.20153798554384
000010 00 00 3f ce 2a a5 71 c0 00 08 e3 ee 2c 04 62 c0
       -282.32295059785247 -144.1304850038723
000020 00 80 42 6f ad 17 45 c0 00 a0 41 10 34 92 17 40
       -42.18498030421324 5.892776731496269
000030 00 80 c6 a3 97 c8 4b 40 80 03 d3 80 95 c7 58 40
       55.56712767784484 99.11849995238117
000040 00 80 e4 a0 f4 0e 49 c0 00 20 fa 71 12 ac 44 40
       -50.11684046895243 41.3443129035295
000050 00 04 16 b7 60 4f 59 40 00 00 3e 68 f6 8f 64 40
       101.24027802610362 164.49882900342345
000060 00 20 a9 e6 9c 9a 66 40 00 c0 fc 97 22 35 56 40
       180.83165295631625 88.83023643190973
000070 00 c0 f2 25 c1 46 36 c0 00 48 2f ac cd db 41 c0
       -22.276384708180558 -35.717214129530475
000080 00 d0 25 a5 01 50 44 40 00 b0 02 88 35 e1 68 c0
       40.62505020471872 -199.03778458142187
000090 00 00 58 65 59 b6 4b 40 00 70 f6 b9 7d 23 65 40
       55.42460314556956 169.10909746296238
0000a0 00 b0 c2 89 c6 47 40 c0 00 40 ed 21 e9 9a 4a 40
       -32.56074640279985 53.21023964008782
0000b0 00 b8 7c 4a 3c e7 4b 40 00 d0 67 ef eb e5 3a 40
       55.80652743425162 26.89813133511052
0000c0 00 00 0e c5 17 70 37 40 00 0c 64 3a f1 84 4b 40
       23.437862697523087 55.038611697054876
0000d0 00 00 20 1e b3 31 28 40 00 80 09 29 fc 17 6a c0
       12.097069684416056 -208.74953128676862
0000e0 00 80 39 8e e0 e8 44 40 00 a0 f9 32 18 7d 37 40
       41.81935289199464 23.488650499290088
0000f0 00 ec 5b 41 85 1d 60 40 a0 b9 a9 59 5e 99 55 c0
       128.92251651719562 -86.39638368200985
000100 00 a0 65 f9 ff 84 64 c0 00 70 9f 76 b7 b0 60 c0
       -164.1562468514312 -133.52239543094765
000110 00 c0 7f 93 d0 36 64 c0 00 d0 6e b0 b0 2b 6d c0
       -161.71296095801517 -233.3653185047442
000120 00 68 9d f3 62 ef 6a c0 00 00 1d 8f 78 31 73 c0
       -215.48082905524643 -307.09193335846066
000130 00 48 d4 fb 58 50 73 c0 00 00 4a 8e 72 b9 25 c0
       -309.0217245380627 -10.862202116521075
000140 00 40 9b 72 db 8f 6f c0 00 78 00 96 5c 36 64 c0
       -252.4955380470492 -161.69880199519685
000150 80 76 e1 90 34 a0 64 c0 00 00 30 89 39 88 72 c0
       -165.00641674075814 -296.5140468478203
000160 00 00 c4 87 b4 92 74 c0 00 c0 18 0c 6e 57 55 c0
       -329.1690747886896 -85.36609175126068
000170 00 00 c8 ba f7 80 69 c0 00 80 6b 72 be 77 5b c0
       -204.03024043142796 -109.8709989595227
000180 c0 16 d1 58 b2 14 64 c0 00 a8 f7 e4 32 3e 72 c0
       -160.6467708667533 -291.88742539158557
000190 80 1e 03 7d 82 ec 52 c0 00 17 21 ef bb bd 65 c0
       -75.69546437553981 -173.92919117415295
0001a0 00 00 63 27 3d 8e 50 c0 00 28 75 f2 e1 b3 5a 40
       -66.22248253505677 106.81066571656265
0001b0 00 c0 86 ea 9a 7e 4e 40 00 50 f1 58 40 91 5b c0
       60.98910266475286 -110.26955245557474
0001c0 80 69 88 80 fb ae 53 c0 00 d8 49 4d 3a 1c 5f c0
       -78.73410046884055 -124.44105846606544
0001d0 00 60 5a 40 cd 7e 52 c0 00 14 06 4b f4 61 54 40
       -73.98127754998859 81.53053546517913
0001e0 00 60 76 30 4b 4d 5a c0 00 c0 bc 6d 6b 42 3a 40
       -105.20771419105586 26.259451731282752
0001f0 00 6c cd 2a 4b 17 60 c0 00 c1 0e 58 7c 21 53 c0
       -128.7279256832262 -76.5232143539506
000200 00 20 a0 d5 8e d3 46 c0 00 a8 f1 3b 9a e7 4e c0
       -45.65279646223644 -61.809394352909294
000210 00 b0 9c b3 b4 66 54 40 00 3a ac aa 8d 76 56 c0
       81.60477915097727 -89.85239664858818
000220 00 5c 37 32 d2 0d 67 c0 00 00 5e 30 86 6f 22 40
       -184.43190871059778 9.217820655321702
000230 00 00 ce f6 99 af 58 40 00 b0 9c ec 67 c5 57 40
       98.74377222172916 95.08446803380502
000240 00 20 4c eb 07 3a 58 c0 00 98 82 a0 ae ee 59 c0
       -96.90673334535677 -103.72940838578506
000250 00 40 09 98 4c ff 49 c0 00 00 30 b8 5a e5 e4 3f
       -51.99452496005688 0.6529973599826917
000260 00 80 3e 2b ac 6b 48 c0 00 7e 30 6c cf 1d 48 40
       -48.84119167854078 48.23289253585608
000270 00 d8 76 82 27 44 5a 40 00 62 74 ff 03 3c 60 40
       105.0649114761909 129.87548802119272
000280 00 80 0a ef 00 ae 62 40 00 5c a5 fa a3 05 59 40
       149.43761398363858 100.08813348911644
000290 00 00 7f 1c d6 1c 5f 40 c0 ee 31 39 44 19 55 40
       124.45056831743568 84.39478902698738
0002a0 00 a4 74 b7 be e1 56 40 00 a0 14 bb 26 f1 4e c0
       91.52726541891752 -61.88399446971016
0002b0 00 90 71 f4 e4 54 52 c0 00 ac d3 1d a6 44 53 40
       -73.32647429552162 77.07263894721109
0002c0 00 e0 aa 86 20 b5 52 40 00 c0 bb 16 d5 c3 46 c0
       74.83011023222934 -45.5299404541729
0002d0 00 10 bb 7d 87 90 57 40 00 00 25 5c 20 f0 38 c0
       94.25826972263167 -24.937993773492053
0002e0 00 00 0f eb d8 7d 3b 40 00 80 14 31 50 5a 49 40
       27.491591159021482 50.705572257051244
0002f0 00 50 0d 6e fe a3 57 40 00 00 e8 7e 5d ba 6a 40
       94.56240416812943 213.8239130526781
000300 00 00 87 1e 32 3b 01 c0 00 40 83 0e 7f ee 38 40
       -2.1539041886280756 24.931626231234986
000310 00 d0 f4 b9 aa 78 62 40 00 f4 eb c2 01 d7 3a c0
       147.77084062399808 -26.839870627027267
000320 00 f2 3e cf 7f ab 46 c0 00 0c 8a 3f 99 00 61 40
       -45.33983793805601 136.0187070556858
000330 00 c8 d1 e2 01 4e 56 40 00 00 44 81 27 ab 15 40
       89.21886511312914 5.417142886901274
000340 00 f0 d5 fd 59 3c 64 40 00 80 e8 c0 be 2f 51 c0
       161.88598529610317 -68.74601767258719
000350 00 c0 e4 45 07 dd 5f 40 00 00 be a3 79 3d 24 c0
       127.45356891001575 -10.120068661635742
000360 00 00 00 d4 69 b5 2b c0 00 50 29 91 4c 48 5a 40
       -13.854323029518127 105.12967328104423
000370 00 c8 62 c0 6a e0 42 40 00 68 40 62 53 82 65 40
       37.75325779746345 172.072678685945
000380 00 00 a6 f3 41 7f 63 40 00 40 13 82 2f a1 56 40
       155.97680075094104 90.51852466468699
000390 00 6c f4 44 cc b6 50 40 00 1a d1 60 dc c3 5e c0
       66.85621761197399 -123.0603258172996
0003a0 00 80 d0 6f 02 ee 51 c0 00 90 a3 d1 30 28 53 40
       -71.71889872895554 76.62797966931248
0003b0 00 e8 f3 0e c4 83 55 40 00 00 c0 05 6e 01 20 c0
       86.0588414556405 -8.002792529761791
0003c0 00 00 40 14 ef 1f 41 40 00 30 d2 af 24 7d 63 40
       34.24948361515999 155.9107283692574
0003d0 00 66 76 c7 c4 37 25 c0 80 66 3e f7 6c e3 40 40
       -10.608923180773672 33.776762872189465
0003e0 00 00 08 f5 65 89 34 40 00 20 f6 d0 ea be 50 40
       20.536711992695928 66.98308204684872
0003f0 00 d0 c5 e3 4f 4f 5c 40 00 c2 36 39 09 2b 52 40
       113.23925108258845 72.67243795726245
000400 00 80 9a 23 46 19 30 c0 00 c0 9a fb 1b 29 46 40
       -16.098726487369277 44.32116646820214
000410 00 a0 49 c9 44 8a 64 40 00 60 bc 74 ba 77 43 40
       164.32089676265605 38.93537768552778
000420 00 00 1c 1c ff 48 5e 40 00 a0 bc 80 23 60 4c c0
       121.140570666641 -56.7510834618588
000430 00 a0 d3 e0 32 08 5c 40 00 00 c2 1e 3c 6a 44 c0
       112.12810536066536 -40.829959721304476
000440 00 b2 60 9a b4 1a 64 40 00 74 46 16 d9 3e 61 40
       160.83454626928142 137.96399987945915
000450 00 00 9e e9 04 29 59 40 00 80 4d be 41 e7 53 40
       100.6409248393029 79.61338765686378
000460 00 48 85 21 0b 73 43 40 00 00 74 24 36 67 5e 40
       38.89877718932985 121.61267958953977
000470 00 00 55 a1 9c ba 32 40 00 e0 3b 0a c1 1b 62 40
       18.728952487232164 144.86731445020996
000480 00 80 2e c8 cf 4a 47 c0 00 40 be b6 ae 56 59 40
       -46.584466002183035 101.35441368655302
000490 00 e0 f5 2e d3 e5 45 40 00 72 8c 1e c8 19 5d 40
       43.79550730710616 116.40283931460726
0004a0 00 b8 6b d7 04 1d 69 c0 00 00 8f 7f 5b 81 59 40
       -200.90684100188082 102.02120961155742
0004b0 00 56 11 74 81 30 54 c0 00 00 78 2a 17 36 56 40
       -80.75790120785678 88.84516393393278
0004c0 00 40 b4 1f 99 1e 63 40 00 40 00 b5 0d 0e 5e c0
       152.9561918755062 -120.2195866110269
0004d0 80 a6 f8 ee 2f cc 51 c0 00 80 42 75 83 56 56 40
       -71.1904256275393 89.35177356237546
0004e0 00 00 ec c8 9e 8d 58 40 80 66 f1 0e d2 3b 55 40
       98.21281645819545 84.93469594549424
0004f0 00 8c 28 2b 59 cf 30 40 00 60 57 48 12 d3 3e 40
       16.809954354666843 30.824497720081126
000500 00 00 9f 00 1a 42 43 40 00 00 18 d5 c2 8d 50 40
       38.516418531071395 66.21501662582159
000510 00 f0 3e f9 16 9a 4a 40 c0 cc 6c eb e4 60 66 40
       53.203826099139405 179.0279442906376
000520 00 d0 64 3d e9 38 52 40 00 36 7f 60 ca 95 56 40
       72.88923582882853 90.34047710822051
000530 00 18 19 5c b1 c9 60 40 00 e0 73 97 fa 56 55 40
       134.3029003610718 85.35904489818495
000540 00 70 b5 82 6b df 64 40 00 90 d0 f9 a0 ed 50 c0
       166.98187385022175 -67.71295018546516
000550 00 9c 2d 44 b5 da 61 40 00 1a 32 ce 1a 35 5e 40
       142.83462723644334 120.82976107495051
000560 00 a0 e9 88 f4 ac 60 c0 00 30 4e cf 37 ce 4c 40
       -133.404850441264 57.611078179528704
000570 00 00 17 66 5d 68 34 c0 00 c8 92 cf 7e f3 59 c0
       -20.407675152411684 -103.80461491903407
000580 00 00 88 c0 2c a9 54 40 00 e0 79 32 f5 2e 4c c0
       82.64335644990206 -56.36685782385757
000590 00 f8 36 ee 5b 2f 5f 40 00 80 1f 4b f8 bc 42 40
       124.73998599403421 37.47632731474005
0005a0 00 77 90 38 0a e4 40 c0 00 08 9e aa 14 3d 57 40
       -33.78156191877315 92.95438638146152
0005b0 c0 4c 89 9b a9 1b 36 c0 00 84 f6 af 91 31 6e 40
       -22.108056756039105 241.54903410098632
0005c0 00 a0 fb f2 47 29 55 c0 00 00 c6 af eb 9b 51 40
       -84.64501642773394 70.43626016937196
0005d0 00 30 5e 7f 50 6f 40 c0 00 00 64 fe 49 6e 34 c0
       -32.869644089689245 -20.4308165544644
0005e0 00 20 66 9c 7c 94 6c 40 00 8c 3b 3d 35 e9 55 c0
       228.64021129556932 -87.64387446227192
0005f0 00 20 71 3b 4a 4e 5f 40 00 80 42 07 f3 23 02 40
       125.22328077361453 2.2675533835572423
000600 00 80 00 0b 4d 95 50 40 00 00 5e 8b bd 56 2f c0
       66.33282733010128 -15.669414859032258
000610 00 40 79 bd d6 59 5b c0 00 20 33 09 3e d2 41 c0
       -109.40373169747181 -35.64251818653429
000620 00 80 40 b1 11 22 58 40 00 40 58 39 7b 1b 55 40
       96.53232985781506 84.42939599626698
000630 00 78 a5 4d f2 71 64 40 00 c0 2f 00 a7 08 37 c0
       163.56082804029575 -23.0337982288911
000640 00 68 1c b9 a5 4a 5d 40 00 30 c8 e2 09 8c 4f 40
       117.16636493467377 63.09405169272213
000650 00 00 85 25 d8 99 62 40 00 74 e0 3c 79 5d 53 40
       148.80763507820666 77.46052476805926
000660 00 a5 59 7e df 48 56 c0 00 c0 08 c6 b5 3f 45 40
       -89.13864096407269 42.49773478915449
000670 00 00 e7 35 72 8e 2e c0 00 d0 9a f0 3e 64 5b 40
       -15.278215107391588 109.56634154432686
000680 00 00 54 fe 09 09 15 c0 00 c4 4d 03 11 58 50 c0
       -5.258827184559777 -65.37603838533687
000690 00 50 cb 9c 07 6a 47 c0 00 7c ae 06 8c 37 5c 40
       -46.828357314370805 112.86792151488771
0006a0 00 a0 42 7a 7e 59 5e c0 00 28 f9 12 3e 3f 42 40
       -121.39834457880352 36.49408185163338
0006b0 00 4c 7e e3 45 78 4d c0 00 10 ef 76 7f cb 3d c0
       -58.93963283221092 -29.794913705220097
0006c0 d0 8c e8 2f a8 98 60 c0 00 80 81 c2 64 5b 5c 40
       -132.77053065700466 113.42802488943562
0006d0 00 30 55 a1 8c 3f f2 bf 00 c0 28 5f 9b a9 58 40
       -1.1405149747906762 98.65010813693516
0006e0 00 78 2a 2c 2a 1b 4e c0 00 3e c4 29 d3 44 57 40
       -60.21222450326604 93.07538837589527
0006f0 00 0c 42 d8 f5 9d 4e 40 00 70 4a 11 cd 15 64 40
       61.23406508660264 160.68128265894484
000700 00 00 20 4a 6c 7d 42 40 00 00 5d da 50 8b 47 40
       36.97986723482609 47.08840493718162
000710 00 a0 f5 da 78 87 6e 40 00 e0 14 dc 0b 3a 67 40
       244.2335028455127 185.81394771649502
000720 00 00 f5 29 ea e2 45 40 00 20 95 3e fa 72 52 c0
       43.77277111494914 -73.79652370989788
000730 00 70 fb aa f3 1d 61 40 00 70 4a 92 a2 1d 5a 40
       136.93599461659323 104.46304757375037
000740 00 e8 d3 06 3c bb 61 40 00 00 0c ce d7 69 22 40
       141.8510774744791 9.206724585499614
000750 00 68 3c d2 b4 7c 62 40 00 a0 9b f6 58 8c 6b 40
       147.89707290456863 220.38585977931507
000760 00 60 28 5c 12 5e 4c 40 00 50 8f fd f5 f6 54 40
       56.73493530246196 83.85876406665193
000770 00 00 f5 a6 7f 29 3a 40 00 c0 b3 85 da 9c 53 c0
       26.162104067625478 -78.45083754113875
000780 00 00 a0 7f 93 27 63 40 00 a0 eb a4 4e 1a 4e 40
       153.23675519227982 60.20552503113868
000790 00 b8 41 c5 5c 9d 62 40 00 30 e4 3b d0 36 62 40
       148.91757452808088 145.71291918342467
0007a0 40 73 e8 1d 7e 08 43 40 00 e0 cb d0 f1 22 40 40
       38.066348780156204 32.27300462679705
0007b0 00 98 96 4f 7a 22 39 40 00 60 43 84 95 eb 45 40
       25.134678816095402 43.840500386140775
0007c0 00 00 e0 34 5c 3b 46 40 00 00 62 33 47 70 66 40
       44.463751420378685 179.5086914934218
0007d0 00 20 5b 32 d2 82 51 40 00 c0 04 33 1a 9c 5f 40
       70.04407938860822 126.43909907783382
0007e0 00 00 98 5c 35 70 29 40 00 00 94 e6 91 18 67 40
       12.719157117418945 184.76781014353037
0007f0 00 00 50 f0 13 7c 60 40 00 50 0a 0a 29 38 5b c0
       131.87743392586708 -108.8775048351963
